frontend/public/artifacts/dataeng/model.onnx (onnx, 449306 bytes, 14 tensors)

_layer1.0.weight f4 [256, 300]
0.0040082787 -0.037838656 0.0845742 -0.23471133 0.2101049 -0.40863028 0.12428761 -0.124216035
-0.29107818 0.401383 0.074898206 0.108615875 0.16531646 -0.031219479 0.18280353 0.19535983
-0.11274595 0.13809988 -0.19370474 -0.049706426 0.17019203 0.23249567 -0.20398307 0.03417562
0.0051793116 -0.10330998 0.3819869 0.4139904 -0.28668007 -0.21811217 0.09874185 0.056486186
0.09223707 -0.0168237 0.2575654 0.053437196 0.24382849 -0.23075965 -0.16115162 -0.055158477
0.35272482 -0.32198426 -0.15594329 0.049392942 -0.3242124 0.34391898 0.13804528 -0.049872197
-0.013203766 0.14648283 -0.16205788 0.12090238 0.2644138 0.13151175 0.20415594 0.05445917
-0.098873965 -0.12929726 0.23083137 -0.15770747 -0.3295719 0.0021912837 -0.24007103 0.21688695
-0.093872905 -0.17180471 -0.048098933 -0.106335625 -0.020427767 -0.24952933 -0.20209196 0.013685503
-0.15419392 -0.3128277 -0.14434397 -0.19512339 -0.02716707 -0.016508723 -0.13002945 -0.029550165
0.048779827 -0.06423079 -0.28038087 0.012509992 -0.2920346 0.003952209 -0.199809 0.3258281
-0.19835894 0.032498512 -0.032155342 -0.021929039 0.16935126 0.0047300756 -0.12015375 -0.049620148
0.030276993 0.3068192 -0.10771961 0.09130692 0.14869317 0.010758635 -0.15801623 0.15224834
-0.2508013 0.011622837 0.013287176 0.0029751752 0.15826589 0.24490626 -0.12303033 0.050180428
0.05026096 -0.25961673 -0.27193022 -0.09926972 -0.07585041 -0.1309667 0.031859607 0.029829493
0.088039726 0.09582021 -0.30562598 -0.03242397 -0.035936963 0.17901188 0.09852709 -0.24905826
0.11466855 -0.13695039 -0.05220875 0.13706441 0.086599566 -0.018402155 -0.16966374 0.24237703
-0.08815533 -0.16712736 0.1617312 -0.040128674 0.0040883496 0.016205668 -0.19475816 -0.089594625
0.047429364 -0.16348718 -0.060840175 -0.25328675 -0.0456539 0.1788971 -0.36304596 -0.1666483
0.46925348 -0.32212955 0.02343172 0.030062411 0.37982535 -0.26846275 -0.023734914 0.010145457
0.052312437 -0.10566804 0.029310895 -0.09109028 0.17991367 0.34740832 -0.20052652 0.127502
0.023489248 0.01211058 0.1472602 -0.05505786 -0.04725114 -0.08261604 0.18849476 -0.032687824
-0.0090158805 -0.08368896 0.14245895 0.24914546 0.017667327 -0.028388599 0.013093186 -0.23342474
-0.18989766 0.10177221 0.26400822 -0.038842246 0.07005959 -0.000109016364 -0.08436922 -0.25939184
0.06007039 0.10267284 -0.15917903 0.3170248 0.008906935 -0.10113369 -0.27406862 0.13979922
-0.22517253 -0.17690372 -0.035943337 -0.0030461485 0.12905984 -0.010560646 -0.22614607 0.04960092
-0.06715638 -0.18428525 0.110008426 -0.03849502 0.1333277 0.007987777 -0.068613306 0.008311
0.35648242 0.23977114 -0.09462972 0.18506142 -0.18833958 -0.12639317 0.15630344 0.18659179
0.14715119 -0.077767365 0.061013862 -0.24508607 0.26596424 0.15472548 -0.16390093 0.04166395
-0.1100227 -0.03621287 0.19883762 0.19741467 0.01199959 0.06409421 -0.16436228 -0.03657053
0.23568018 0.1849124 0.0803712 -0.11411494 0.1274721 0.09239679 0.09808065 0.03463586
-0.026707735 0.22113465 0.05244493 0.26740026 0.088502236 -0.24566501 0.30810508 -0.10073452
00000000: e157 833b b5fc 1abd 3d35 ad3d 2b58 70be
00000010: bd25 573e fd37 d1be 818a fe3d fa64 febd
00000020: 3308 95be 1382 cd3e 3b64 993d 0072 de3d
00000030: b848 293e febf ffbc d930 3b3e 680c 483e
00000040: 59e7 e6bd 0e6a 0d3e 895a 46be f798 4bbd
00000050: d246 2e3e 5813 6e3e f0e0 50be bcfb 0b3d
00000060: 37b7 a93b 2f94 d3bd c993 c33e 8df6 d33e
00000070: bbc7 92be cc58 5fbe 2b39 ca3d 0f5e 673d
00000080: cae6 bc3d dbd1 89bc 9ddf 833e f6e0 5a3d
00000090: 2dae 793e 424c 6cbe ee04 25be dbed 61bd
000000a0: 5998 b43e 1fdb a4be 99af 1fbe 4150 4a3d
000000b0: 2bff a5be 2616 b03e be5b 0d3e ca46 4cbd
000000c0: 9c54 58bc 98ff 153e 80f2 25be ab9b f73d
000000d0: 3f61 873e 04ab 063e 410e 513e 9410 5f3d
000000e0: 6f7e cabd 8066 04be 0f5f 6c3e 117e 21be
000000f0: a6bd a8be a49b 0f3b 2ed5 75be 9d17 5e3e
00000100: 7040 c0bd 93ed 2fbe 6303 45bd 7ec6 d9bd
00000110: 2258 a7bc 9e84 7fbe 32f1 4ebe 2939 603c
00000120: 03e5 1dbe f42a a0be e8ce 13be 6dce 47be
00000130: 7a8d debc 4d3d 87bc 7126 05be 3013 f2bc
00000140: 5bcd 473d 6f8b 83bd 158e 8fbe b6f6 4c3c
00000150: 8f85 95be 8881 813b bb9a 4cbe f1d2 a63e
00000160: 9b1e 4bbe 291d 053d 52b5 03bd 87a4 b3bc
00000170: 6b6a 2d3e c0fe 9a3b 2b13 f6bd 7f3e 4bbd
00000180: 7507 f83c 6817 9d3e 199c dcbd 1fff ba3d
00000190: 0643 183e fc44 303c 02cf 21be fde6 1b3e
000001a0: 0769 80be b66d 3e3c 75b2 593c 28fb 423b
000001b0: 7410 223e b5c8 7a3e 53f7 fbbd fe89 4d3d
000001c0: 70de 4d3d 7cec 84be 703a 8bbe ec4d cbbd
000001d0: 7657 9bbd 221c 06be 387f 023d fb5c f43c
000001e0: 2c4e b43d 633d c43d 027b 9cbe ffce 04bd
000001f0: a332 13bd e44e 373e 92c8 c93d 2109 7fbe
00000200: 58d7 ea3d b93c 0cbe d8d8 55bd 9d5a 0c3e
00000210: 1d5b b13d 1ec0 96bc 55bc 2dbe af31 783e
00000220: c88a b4bd 6f23 2bbe dd9c 253e f75d 24bd
00000230: 90f7 853b c0c1 843c af6e 47be 637d b7bd
00000240: 4b45 423d 2f69 27be 8c33 79bd cdae 81be
00000250: 95ff 3abd cd30 373e 29e1 b9be daa5 2abe
00000260: fe41 f03e 2aee a4be e1f3 bf3c 7245 f63c
00000270: 7878 c23e f373 89be b96f c2bc 2239 263c
00000280: 9145 563d 7c68 d8bd 671d f03c 8a8d babd
00000290: 4a3b 383e 81df b13e d356 4dbe e28f 023e
000002a0: 866c c03c 746b 463c 61cb 163e 5a84 61bd
000002b0: 698a 41bd 9932 a9bd c504 413e abe3 05bd
000002c0: 58b7 13bc 1e65 abbd c2e0 113e fd1f 7f3e
000002d0: 12bb 903c 358f e8bc cd84 563c e506 6fbe
000002e0: 8874 42be f36d d03d 162c 873e 0c19 1fbd
000002f0: 677b 8f3d b79f e4b8 c5c9 acbd 02cf 84be
00000300: 5f0c 763d 2346 d23d d4ff 22be 1351 a23e
00000310: 65ee 113c 2e1f cfbd b952 8cbe 8727 0f3e
00000320: a193 66be 4026 35be 5239 13bd e4a1 47bb
00000330: 4328 043e 8f06 2dbc d692 67be 562a 4b3d
00000340: 4989 89bd 46b5 3cbe 194c e13d f4ac 1dbd
00000350: 0e87 083e 2adf 023c 2285 8cbd dc2a 083c
00000360: dd84 b63e 9186 753e 3acd c1bd be80 3d3e
00000370: 17dc 40be 366d 01be 020e 203e eb11 3f3e
00000380: cdae 163e 7f44 9fbd ace9 793d d8f7 7abe
00000390: 772c 883e 5b70 1e3e a5d5 27be d1a7 2a3d
000003a0: 9553 e1bd f253 14bd 179c 4b3e 1227 4a3e
000003b0: ee99 443c d343 833d 964e 28be fbca 15bd
000003c0: 2556 713e ad59 3d3e a899 a43d 18b5 e9bd
000003d0: 0c88 023e 873a bd3d 82de c83d 55de 0d3d
000003e0: 2eca dabc 1f71 623e 7fd0 563d b0e8 883e
000003f0: a940 b53d 9c8f 7bbe f3bf 9d3e e64d cebd

_layer1.0.bias f4 [256]
-0.00015123097 0.00012496892 -0.000113094015 6.926056e-05 -0.00013862892 -0.00013344454 -8.665033e-05 0.00011102216
8.144033e-05 -7.6358876e-05 5.3574076e-05 0.000108208435 -8.065321e-05 -5.5423938e-05 7.736559e-05 8.919352e-05
-2.2012844e-05 9.580652e-05 -0.00012492825 -0.00013876393 6.196859e-05 7.642738e-05 -0.00014276737 -0.00021537434
-0.00019485367 -0.00012342878 9.9300756e-05 -0.00020779933 0.0001339899 -0.00013158222 0.00022037812 9.4046925e-05
5.9268634e-05 -2.7390804e-05 0.00013054268 7.4328964e-05 -9.836758e-05 0.00018683354 1.7817056e-05 -5.940971e-05
7.2989336e-05 0.00023333731 -0.0002143137 -0.00013325135 -0.00031314872 5.9418668e-05 5.2196177e-05 -0.00019072586
-9.698497e-05 1.8308749e-05 -0.00022305093 0.00019842418 6.421421e-05 0.00013108784 0.00011920571 -9.533837e-05
-8.714549e-05 -5.026428e-05 3.1209373e-05 -5.4770564e-05 0.00021653288 0.00014026451 0.00021313463 -0.0002458894
-0.00014047466 -3.213993e-05 -7.510495e-05 -4.0298874e-05 4.9556707e-05 2.4520775e-06 -1.5974949e-05 -8.031483e-05
8.7157976e-05 0.00014635478 -4.6573277e-05 -1.2861025e-05 8.83923e-05 -0.00012875792 6.500406e-05 -0.0001333481
-0.00012694183 6.723103e-05 0.00015095496 4.064083e-05 0.00021344746 -0.00042673593 -7.7321485e-05 -4.904587e-05
7.522082e-05 -0.00018734556 0.00021290377 -8.4947766e-05 6.655867e-05 -6.381643e-05 -0.00012402944 1.3029499e-05
0.00027204442 -8.805825e-05 -0.00021233677 0.000112282745 0.00021780904 6.140594e-05 -0.00014819267 -6.555995e-05
3.6427184e-05 -1.2645896e-05 6.4060936e-05 -5.059298e-05 -1.0947688e-05 7.7489516e-05 0.00015967299 0.000114058814
0.00010503153 -0.00012874255 -6.297279e-05 -7.168108e-05 0.00021701162 0.0001612572 -5.1664687e-05 8.291338e-05
-0.0001963198 0.0002207906 -0.00021273832 0.00014229989 5.6719775e-05 0.00013617559 -0.00023105452 0.00010267227
-0.00011052444 -0.0002047504 -0.00030427266 6.381018e-05 -0.00033085348 -6.118995e-05 5.490335e-05 -0.00021195189
0.00010750959 0.00029010035 -2.1026228e-05 7.005396e-05 -0.0002319988 0.00022210034 -5.088459e-05 5.7364832e-05
-0.00011350471 -7.6941564e-05 0.00012060381 0.00013197816 5.4426822e-05 0.00013729831 -0.00031539839 -0.0001436167
-9.7265176e-05 -8.1781065e-05 -6.84628e-05 -4.5790635e-05 -0.00021148295 0.00012807916 6.481034e-05 3.644984e-06
0.0002771732 1.2191465e-05 -0.0003079803 0.00011984116 -0.00014441278 0.00032879028 6.1027647e-05 -0.00010915323
7.710916e-05 -7.2382674e-05 0.000127113 -6.726154e-05 -0.00013920083 5.5154132e-06 0.00022487999 -0.00016429735
3.251924e-05 0.00026534012 -2.5439427e-05 -5.9544793e-05 0.00013154515 -9.3544e-05 -6.6027605e-05 -0.00019734266
8.248838e-05 -0.00023580938 6.500922e-05 1.9144396e-05 0.00024096174 7.703725e-05 -7.143069e-05 0.0001292484
0.00012959841 6.955937e-05 -9.061301e-05 6.3848725e-05 5.6280052e-05 -1.9971765e-05 1.7273198e-05 -0.000109521214
0.0001052009 -7.3372605e-05 0.000120107514 -0.0001365956 0.0001279925 6.2669926e-05 -6.4410626e-05 7.2617426e-05
6.7880355e-05 0.00013235964 -5.916793e-06 -0.00018950264 -6.250834e-05 -6.4323605e-05 0.000120091005 0.00014313137
-0.00012867266 9.8111406e-05 0.00010665768 7.950312e-05 -4.67707e-05 0.00013979817 -0.00018110857 8.049686e-05
0.00012592693 0.000104250845 0.00013752762 -6.988967e-05 0.00010450205 -0.00014052287 5.711347e-05 -0.00013979789
2.5679371e-06 0.00012706482 0.00013095497 5.110749e-05 -0.00028049693 -0.00015660912 9.390211e-05 0.0001444465
6.114367e-05 6.171891e-05 -4.9095186e-05 -6.440916e-05 -6.607751e-05 -6.148701e-05 -0.00021619881 6.5565124e-05
-0.0001312258 -9.191894e-05 -6.605868e-05 7.0311595e-05 8.096728e-05 -0.00025472394 -0.0001249385 -0.00025318528
00000000: c193 1eb9 170a 0339 e32c edb8 fb3f 9138
00000010: eb5c 11b9 3fed 0bb9 0bb8 b5b8 91d4 e838
00000020: f2ca aa38 dc22 a0b8 bab4 6038 f6ed e238
00000030: 5d24 a9b8 0077 68b8 563f a238 680d bb38
00000040: 39a8 b8b7 bceb c838 2cff 02b9 2981 11b9
00000050: 22f5 8138 a347 a038 d3b3 15b9 1cd6 61b9
00000060: a251 4cb9 a96c 01b9 b03f d038 b5e4 59b9
00000070: a47f 0c39 55f9 09b9 4d15 6739 0f3b c538
00000080: 3697 7838 4ec5 e5b7 49e2 0839 0fe1 9b38
00000090: b14a ceb8 bfe8 4339 d675 9537 b12e 79b8
000000a0: da11 9938 02ac 7439 65b9 60b9 63b9 0bb9
000000b0: 1c2e a4b9 4f38 7938 38ed 5a38 95fd 47b9
000000c0: 6964 cbb8 bd95 9937 c7e2 69b9 1610 5039
000000d0: beaa 8638 a074 0939 14fe f938 66f0 c7b8
000000e0: e1c1 b6b8 dcd2 52b8 cfe6 0238 72b9 65b8
000000f0: 1a0d 6339 f813 1339 e47c 5f39 b7ea 80b9
00000100: 614c 13b9 fdcd 06b8 aa81 9db8 9606 29b8
00000110: 1cdb 4f38 5f8e 2436 f101 86b7 b26e a8b8
00000120: 95c8 b638 d076 1939 ad57 43b8 afc5 57b7
00000130: 415f b938 3103 07b9 ca52 8838 5cd3 0bb9
00000140: b01b 05b9 62fe 8c38 aa49 1e39 c275 2a38
00000150: ded0 5f39 87bb dfb9 a827 a2b8 9ab6 4db8
00000160: dfbf 9d38 3172 44b9 ec3e 5f39 fc25 b2b8
00000170: 6a95 8b38 2fd5 85b8 e60d 02b9 4699 5a37
00000180: 2fa1 8e39 eaab b8b8 b8a6 5eb9 5779 eb38
00000190: ab63 6439 10c7 8038 2b64 1bb9 3b7d 89b8
000001a0: 64c9 1838 b629 54b7 7458 8638 cc33 54b8
000001b0: f6ab 37b7 de81 a238 e46d 2739 dc32 ef38
000001c0: 6044 dc38 11ff 06b9 4210 84b8 7d53 96b8
000001d0: 9d8d 6339 2617 2939 89b2 58b8 c8e1 ad38
000001e0: 32db 4db9 0784 6739 8212 5fb9 5636 1539
000001f0: 65e6 6d38 5bca 0e39 3a47 72b9 c151 d738
00000200: 5bc9 e7b8 44b2 56b9 c986 9fb9 d4d1 8538
00000210: 6776 adb9 1b53 80b8 0648 6638 673f 5eb9
00000220: c676 e138 9c18 9839 7b61 b0b7 efe9 9238
00000230: b444 73b9 9be3 6839 ea6c 55b8 059b 7038
00000240: 6109 eeb8 b05b a1b8 adec fc38 9e63 0a39
00000250: 5b48 6438 bcf7 0f39 0e5c a5b9 d097 16b9
00000260: d8fa cbb8 e081 abb8 b093 8fb8 520f 40b8
00000270: 86c1 5db9 fd4c 0639 c9ea 8738 599c 7436
00000280: 8f51 9139 f289 4c37 6b78 a1b9 3c53 fb38
00000290: 836d 17b9 7c61 ac39 f0f7 7f38 32e9 e4b8
000002a0: aab5 a138 27cc 97b8 a349 0539 c40e 8db8
000002b0: 70f6 11b9 0a11 b936 c3cd 6b39 3c47 2cb9
000002c0: 4565 0838 591d 8b39 c166 d5b7 bcbf 79b8
000002d0: 62ef 0939 0d2d c4b8 4d78 8ab8 c4ed 4eb9
000002e0: 9dfd ac38 9943 77b9 8f55 8838 4798 a037
000002f0: adaa 7c39 0f8f a138 0fcd 95b8 da86 0739
00000300: cfe4 0739 67e0 9138 7d07 beb8 86e6 8538
00000310: 3f0e 6c38 0a89 a7b7 e9e5 9037 c1ae e5b8
00000320: 4e9f dc38 9edf 99b8 3be2 fb38 1a3b 0fb9
00000330: ba35 0639 a96d 8338 3114 87b8 2f4a 9838
00000340: fd5a 8e38 05ca 0a39 dd88 c6b6 3ab5 46b9
00000350: e916 83b8 79e5 86b8 5ed9 fb38 8915 1639
00000360: 4eec 06b9 29c1 cd38 68ad df38 eaba a638
00000370: a82b 44b8 c996 1239 f6e7 3db9 6cd0 a838
00000380: 410b 0439 3fa1 da38 4a35 1039 bb91 92b8
00000390: 1c28 db38 5259 13b9 1f8d 6f38 b696 12b9
000003a0: d354 2c36 b43c 0539 f550 0939 405c 5638
000003b0: a90f 93b9 7137 24b9 50ed c438 9076 1739
000003c0: 423a 8038 166f 8138 8eeb 4db8 6813 87b8
000003d0: 1893 8ab8 96f2 80b8 6db3 62b9 0280 8938
000003e0: a899 09b9 9bc4 c0b8 fc88 8ab8 4074 9338
000003f0: facc a938 788c 85b9 ec01 03b9 f4bd 84b9

_layer1.1.weight f4 [256]
0.73311734 0.8154954 0.76982313 0.83337414 0.75286615 0.7903665 0.795427 0.81337124
0.70088404 0.8206314 0.78750503 0.77377987 0.7815177 0.8033547 0.77884716 0.8178945
0.71609604 0.7676205 0.85634893 0.7985931 0.73080134 0.7263951 0.8870875 0.6388043
0.7872729 0.74019784 0.7530703 0.7411749 0.6927263 0.7577348 0.8284902 0.7663914
0.8045286 0.80484426 0.82855326 0.8091803 0.714826 0.7907662 0.90643495 0.8338456
0.76588625 0.7216469 0.73415536 0.84677565 0.7802387 0.81300646 0.8118079 0.73418486
0.772469 0.73915744 0.7686423 0.83762187 0.82181686 0.74376404 0.77229184 0.7674373
0.75779647 0.82130986 0.7932645 0.6802787 0.72018915 0.7941245 0.7589702 0.83836776
0.8427934 0.7916766 0.8527595 0.77006996 0.8322844 0.80935544 0.78604573 0.7576071
0.76801854 0.75520384 0.7097851 0.8505254 0.7349874 0.7412816 0.7627108 0.7694029
0.7505203 0.7221307 0.762519 0.7650687 0.7911782 0.8249234 0.7374998 0.78251916
0.8004997 0.7621604 0.8435814 0.75454617 0.86923623 0.76110005 0.71097165 0.746249
0.7643909 0.7910179 0.7614924 0.78626347 0.76761353 0.78256214 0.8549705 0.7194478
0.86033386 0.7751396 0.7292817 0.76926476 0.79537976 0.8913375 0.8374164 0.770083
0.7435967 0.8520142 0.66282153 0.7507354 0.81862915 0.71450853 0.84688056 0.74969596
0.77065516 0.816977 0.78350127 0.745834 0.7662944 0.8653375 0.8052332 0.7784904
0.8238512 0.84884393 0.80279243 0.7677896 0.80495036 0.82483 0.7714479 0.7791939
0.7701036 0.81382 0.80284005 0.7415684 0.8558796 0.75039816 0.83995634 0.768131
0.82921344 0.84118956 0.7510654 0.6810247 0.74847835 0.6456878 0.76055306 0.7473619
0.79680157 0.7360632 0.8592133 0.71341777 0.76385635 0.68769926 0.73199767 0.77123034
0.76640296 0.76662874 0.8068873 0.7260483 0.77132905 0.76276934 0.86157435 0.80105454
0.719483 0.76390976 0.724762 0.7647733 0.7259268 0.81164974 0.7771568 0.7397192
0.7725226 0.77357966 0.7923719 0.8053037 0.7934718 0.8634763 0.8329804 0.80920917
0.8342859 0.68759096 0.7967992 0.8232729 0.76356125 0.7319461 0.6837363 0.8191458
0.80951494 0.7588843 0.74344885 0.7060415 0.7743928 0.7678712 0.80946785 0.77228475
0.79632336 0.78527826 0.7761093 0.8250515 0.80166733 0.73676145 0.7624291 0.73914194
0.847147 0.81064695 0.8362988 0.6898482 0.73893917 0.81811595 0.7790609 0.80863
0.817006 0.7887924 0.8046557 0.7384824 0.79198974 0.82107985 0.7736658 0.72559094
0.78492445 0.7721435 0.6726041 0.82997763 0.7556459 0.7659068 0.8024964 0.8047112
0.7018846 0.82491684 0.8661 0.67804503 0.7815586 0.82291085 0.7672031 0.77881783
0.73036516 0.74071527 0.7025451 0.73895854 0.75587463 0.85129124 0.9340475 0.76351494
0.8478301 0.74639183 0.6810616 0.8846751 0.78115946 0.85224396 0.7453216 0.8250846
00000000: 94ad 3b3f 4ec4 503f 2113 453f 0258 553f
00000010: d6bb 403f 7555 4a3f 1ba1 4b3f 1939 503f
00000020: 236d 333f e614 523f ee99 493f 7016 463f
00000030: 8b11 483f a7a8 4d3f 8762 473f 8961 513f
00000040: 1252 373f c782 443f af39 5b3f 9970 4c3f
00000050: cc15 3b3f 07f5 393f 2b18 633f ae88 233f
00000060: b78a 493f 9b7d 3d3f 37c9 403f a3bd 3d3f
00000070: 8356 313f e8fa 413f ef17 543f 3a32 443f
00000080: 96f5 4d3f 460a 4e3f 111c 543f 7126 4f3f
00000090: d6fe 363f a76f 4a3f 1f0c 683f e876 553f
000000a0: 1f11 443f dabd 383f 9bf1 3b3f 4ac6 583f
000000b0: b9bd 473f 3121 503f a4d2 4f3f 8af3 3b3f
000000c0: 87c0 453f 6c39 3d3f bec5 443f 636e 563f
000000d0: 9762 523f 5267 3e3f ebb4 453f c576 443f
000000e0: f3fe 413f 5d41 523f 6213 4b3f bf26 2e3f
000000f0: 515e 383f be4b 4b3f df4b 423f 459f 563f
00000100: 4fc1 573f 51ab 4a3f 724e 5a3f 4e23 453f
00000110: 9710 553f eb31 4f3f 4b3a 493f 8af2 413f
00000120: dd9c 443f 0a55 413f 7ab4 353f 08bc 593f
00000130: 2228 3c3f a2c4 3d3f 0441 433f 97f7 443f
00000140: 1922 403f 8fdd 383f 7234 433f 8bdb 433f
00000150: a88a 4a3f 2e2e 533f c9cc 3c3f 2d53 483f
00000160: 8ced 4c3f f21c 433f f3f4 573f f029 413f
00000170: 4486 5e3f 74d7 423f 3d02 363f 2d0a 3f3f
00000180: 1faf 433f 2680 4a3f 2af1 423f 9048 493f
00000190: 5282 443f fe55 483f 59df 5a3f bb2d 383f
000001a0: d73e 5c3f 8c6f 463f 35b2 3a3f 89ee 443f
000001b0: 029e 4b3f b22e 643f ec60 563f 2924 453f
000001c0: 5a5c 3e3f 9a1d 5a3f acae 293f 3230 403f
000001d0: ae91 513f 08ea 363f 2acd 583f 13ec 3f3f
000001e0: a849 453f 6825 513f 8a93 483f faee 3e3f
000001f0: df2b 443f c286 5d3f c323 4e3f 264b 473f
00000200: eae7 523f d64d 593f ce83 4d3f dc8d 443f
00000210: 3a11 4e3f 0f28 533f 9c7d 453f 4079 473f
00000220: 8225 453f 8256 503f ed86 4d3f 6dd7 3d3f
00000230: ed1a 5b3f 181a 403f 6107 573f 3ca4 443f
00000240: 5547 543f 3358 573f d245 403f a257 2e3f
00000250: 479c 3f3f cc4b 253f 9bb3 423f 1c53 3f3f
00000260: 30fb 4b3f a36e 3c3f 67f5 5b3f 8ca2 363f
00000270: 178c 433f 0f0d 303f 3364 3b3f 5a6f 453f
00000280: fc32 443f c841 443f 2b90 4e3f 4dde 393f
00000290: d275 453f da44 433f 2390 5c3f e911 4d3f
000002a0: 0a30 383f 978f 433f 018a 393f 2fc8 433f
000002b0: 57d6 393f 47c8 4f3f bff3 463f 3d5e 3d3f
000002c0: 0bc4 453f 5109 463f e3d8 4a3f 6228 4e3f
000002d0: f820 4b3f c80c 5d3f 343e 553f 5528 4f3f
000002e0: c393 553f f605 303f 08fb 4b3f 03c2 523f
000002f0: c078 433f d260 3b3f 5809 2f3f 8ab3 513f
00000300: 5f3c 4f3f 3e46 423f aa52 3e3f 23bf 343f
00000310: 9b3e 463f 3593 443f 4939 4f3f 74b4 453f
00000320: d9db 4b3f ff07 493f 19af 463f 9336 533f
00000330: 123a 4d3f 669c 3c3f 8e2e 433f 6838 3d3f
00000340: a0de 583f 8f86 4f3f ae17 563f e499 303f
00000350: 1e2b 3d3f 0c70 513f 8970 473f 6002 4f3f
00000360: 4e27 513f 4cee 493f eafd 4d3f 2f0d 3d3f
00000370: d7bf 4a3f 4a32 523f f60e 463f 54c0 393f
00000380: cff0 483f 32ab 453f c82f 2c3f 6a79 543f
00000390: 0272 413f 7812 443f 6770 4d3f 8e01 4e3f
000003a0: b6ae 333f c02d 533f bbb8 5d3f 5c94 2d3f
000003b0: 3914 483f 49aa 523f 6c67 443f 9b60 473f
000003c0: 36f9 3a3f 849f 3d3f ffd9 333f 632c 3d3f
000003d0: 0081 413f 39ee 593f bd1d 6f3f b775 433f
000003e0: 650b 593f 8913 3f3f 0e5a 2e3f 117a 623f
000003f0: 11fa 473f a92c 5a3f 65cd 3e3f bf38 533f

_layer1.1.bias f4 [256]
-0.65681785 -0.53775865 -0.6601568 -0.6849429 -0.7417859 -0.6285303 -0.75064427 -0.91355634
-0.5319401 -0.7100581 -0.6402604 -0.6802928 -0.7475683 -0.6291391 -0.5535163 -0.4948455
-0.66291845 -0.7335225 -0.57461935 -0.6935495 -0.6392541 -0.7313654 -0.33312842 -0.5202642
-0.621298 -0.6063533 -0.6147692 -0.76551515 -0.7674284 -0.66142035 -0.8738494 -0.833184
-0.7970456 -0.6787895 -0.8050649 -0.643523 -0.7204596 -0.6108833 -0.6208533 -0.5780485
-0.64654696 -0.6941509 -0.7163188 -0.81647706 -0.7670306 -0.46721306 -0.59933317 -0.7717635
-0.6865908 -0.62945443 -0.63274807 -0.5820915 -0.68817663 -0.641638 -0.66483784 -0.67682755
-0.7691738 -0.71100914 -0.71202785 -0.48614338 -0.7973394 -0.84047484 -0.5750823 -0.63358474
-0.8689907 -0.57215273 -0.7585656 -0.603319 -0.73540336 -0.7829008 -0.73061776 -0.7061212
-0.6966985 -0.7046383 -0.69096833 -0.5497209 -0.7041737 -0.54373425 -0.73083913 -0.6206479
-0.6262203 -0.71382874 -0.45524138 -0.642981 -0.7436735 -0.58992624 -0.5114697 -0.78049386
-0.75602674 -0.7401756 -0.62848026 -0.71179694 -0.58518916 -0.81785756 -0.6454938 -0.6820274
-0.6997588 -0.68229216 -0.7343981 -0.7657608 -0.698803 -0.6607806 -0.67205524 -0.7064306
-0.53703165 -0.706132 -0.55122405 -0.62250006 -0.6377617 -0.8615385 -0.5200644 -0.56516945
-0.68791413 -0.5692931 -0.67909896 -0.5625506 -0.5963503 -0.5475508 -0.6215692 -0.633721
-0.6774413 -0.7630855 -0.70457256 -0.60994714 -0.7780788 -0.6152887 -0.69295603 -0.62435055
-0.6769192 -0.64717907 -0.7868993 -0.51369494 -0.46731877 -0.5228849 -0.5212914 -0.7510242
-0.77889687 -0.8377298 -0.75783366 -0.6684518 -0.80024755 -0.72951883 -0.74236095 -0.5728406
-0.61827666 -0.7337054 -0.5625129 -0.51682526 -0.634339 -0.5026179 -0.77939457 -0.6755361
-0.73755825 -0.64041674 -0.8670183 -0.7823264 -0.59647644 -0.80437106 -0.77350587 -0.65915656
-0.55206066 -0.5578785 -0.71865225 -0.82828397 -0.6633607 -0.55687326 -0.5188552 -0.75307506
-0.65592265 -0.8079963 -0.64170694 -0.803232 -0.7743762 -0.6775509 -0.6379795 -0.71030545
-0.78971434 -0.6662593 -0.76555866 -0.57244295 -0.6313492 -0.4717247 -0.73269075 -0.64705426
-0.7141211 -0.64059067 -0.86103475 -0.55764765 -0.63701934 -0.59355956 -0.768183 -0.48357466
-0.7070822 -0.67848206 -0.6648986 -0.56782097 -0.76634055 -0.63150686 -0.7441214 -0.62242883
-0.4886975 -0.6485479 -0.50546515 -0.52941126 -0.75465167 -0.4699972 -0.61552167 -0.5558228
-0.8580737 -0.7698339 -0.6262367 -0.6615925 -0.5888928 -0.7781333 -0.7241374 -0.65927285
-0.6862266 -0.7741604 -0.70466423 -0.70781934 -0.6044428 -0.70388037 -0.70166624 -0.8143559
-0.81473064 -0.6750146 -0.36498216 -0.59529626 -0.68705696 -0.66824394 -0.63338906 -0.6707945
-0.69909346 -0.6233544 -0.56429267 -0.76592594 -0.6174808 -0.7298603 -0.47323048 -0.65059656
-0.6651046 -0.5495271 -0.6366212 -0.608278 -0.75824493 -0.7240456 -0.3627739 -0.85833997
-0.67205244 -0.52451146 -0.6477167 -0.44039127 -0.5797565 -0.7797553 -0.79343665 -0.7204113
00000000: 3725 28bf 8daa 09bf 0900 29bf 6b58 2fbf
00000010: aee5 3dbf 5de7 20bf 392a 40bf d4de 69bf
00000020: 3a2d 08bf 5ec6 35bf 1be8 23bf ab27 2ebf
00000030: a360 3fbf 430f 21bf 3fb3 0dbf 645c fdbe
00000040: 06b5 29bf 21c8 3bbf 411a 13bf 768c 31bf
00000050: 28a6 23bf c33a 3bbf cf8f aabe 0930 05bf
00000060: 630d 1fbf f839 1bbf 8461 1dbf cdf8 43bf
00000070: 3076 44bf d852 29bf 98b4 5fbf 8c4b 55bf
00000080: 2e0b 4cbf 26c5 2dbf bc18 4ebf ecbd 24bf
00000090: 0a70 38bf d962 1cbf 3ef0 1ebf fdfa 13bf
000000a0: 1a84 25bf e0b3 31bf ab60 37bf a404 51bf
000000b0: 1e5c 44bf 8d36 efbe e66d 19bf 4b92 45bf
000000c0: 6ac4 2fbf ed23 21bf c7fb 21bf f303 15bf
000000d0: 582c 30bf 6342 24bf d032 2abf 9244 2dbf
000000e0: 93e8 44bf b204 36bf 7547 36bf c9e7 f8be
000000f0: 6f1e 4cbf 5c29 57bf 9838 13bf 9c32 22bf
00000100: 2d76 5ebf 9a78 12bf 5b31 42bf 1d73 1abf
00000110: 6543 3cbf 306c 48bf c409 3bbf 5cc4 34bf
00000120: d55a 32bf 2d63 34bf 4de3 30bf 82ba 0cbf
00000130: ba44 34bf 2b32 0bbf 4618 3bbf c8e2 1ebf
00000140: f94f 20bf 7bbd 36bf 6615 e9be 679a 24bf
00000150: 6361 3ebf 6805 17bf aeef 02bf 72ce 47bf
00000160: f88a 41bf 267c 3dbf 15e4 20bf 5338 36bf
00000170: f5ce 15bf 1d5f 51bf 153f 25bf 5999 2ebf
00000180: 6523 33bf b3aa 2ebf 8401 3cbf e608 44bf
00000190: c1e4 32bf eb28 29bf d00b 2cbf a3d8 34bf
000001a0: e87a 09bf 11c5 34bf 051d 0dbf 2a5c 1fbf
000001b0: 5a44 23bf ca8d 5cbf f122 05bf f2ae 10bf
000001c0: 241b 30bf 31bd 11bf 6ed9 2dbf 5103 10bf
000001d0: 6aaa 18bf 4a2c 0cbf 291f 1fbf 8a3b 22bf
000001e0: cb6c 2dbf 9259 43bf de5e 34bf 7f25 1cbf
000001f0: 2c30 47bf 8f83 1dbf 9165 31bf 70d5 1fbf
00000200: 944a 2dbf 87ad 25bf 3c72 49bf 8381 03bf
00000210: 6844 efbe c9db 05bf 5a73 05bf 1f43 40bf
00000220: c965 47bf 7675 56bf 6301 42bf a81f 2bbf
00000230: 06dd 4cbf bfc1 3abf 5e0b 3ebf aea5 12bf
00000240: 6147 1ebf 1ed4 3bbf d800 10bf a94e 04bf
00000250: 0a64 22bf 91ab 00bf 6786 47bf efef 2cbf
00000260: 9ed0 3cbf 5af2 23bf e9f4 5dbf 8b46 48bf
00000270: aeb2 18bf 43eb 4dbf 7b04 46bf 7cbe 28bf
00000280: d953 0dbf 20d1 0ebf 98f9 37bf 6b0a 54bf
00000290: 02d2 29bf 3f8f 0ebf b2d3 04bf 87c9 40bf
000002a0: 8cea 27bf d8d8 4ebf e846 24bf 9da0 4dbf
000002b0: 853d 46bf fa73 2dbf a052 23bf 94d6 35bf
000002c0: b82a 4abf f88f 2abf a7fb 43bf 9f8b 12bf
000002d0: 1aa0 21bf e685 f1be 9f91 3bbf 59a5 25bf
000002e0: a4d0 36bf c0fd 23bf c66c 5cbf ffc1 0ebf
000002f0: b313 23bf 85f3 17bf a4a7 44bf 1997 f7be
00000300: 5703 35bf 00b1 2dbf cb36 2abf b75c 11bf
00000310: e52e 44bf 6faa 21bf bd7e 3ebf 7f57 1fbf
00000320: 8f36 fabe 3c07 26bf 2a66 01bf 7f87 07bf
00000330: da30 41bf 79a3 f0be d492 1dbf 674a 0ebf
00000340: b8aa 5bbf d613 45bf 0c51 20bf 205e 29bf
00000350: aec1 16bf be33 47bf 1261 39bf 1bc6 28bf
00000360: 8cac 2fbf 602f 46bf e064 34bf a633 35bf
00000370: c3bc 1abf 8131 34bf 66a0 33bf a179 50bf
00000380: 3092 50bf c2cd 2cbf f1de babe 5665 18bf
00000390: f7e2 2fbf 0912 2bbf c925 22bf 30b9 2bbf
000003a0: caf7 32bf 2794 1fbf 7c75 10bf b913 44bf
000003b0: 3913 1ebf 20d8 3abf 444b f2be 7f8d 26bf
000003c0: 4c44 2abf cfad 0cbf 9bf9 22bf 1bb8 1bbf
000003d0: 571c 42bf 0d5b 39bf 80bd b9be 2bbc 5bbf
000003e0: a10b 2cbf 6246 06bf c3d0 25bf f77a e1be
000003f0: ec6a 14bf 0b9e 47bf aa1e 4bbf e06c 38bf

_layer1.1.running_mean f4 [256]
0.15607741 1.9174919 2.0980666 -1.7148318 2.8113408 1.1011744 -1.4949849 -0.24673575
-0.5875244 3.0404007 2.6925957 1.9344457 1.0106931 1.6969674 1.0623287 -0.07714577
-0.10874768 2.9839442 1.6607423 -3.2142472 -3.6487172 2.0404596 2.4067605 -3.605528
-0.39247584 1.8952304 3.039274 3.4166453 0.93500715 0.724319 1.7648271 1.9232745
-1.5282733 0.9381147 1.9525424 1.043715 -3.481421 2.0909288 -0.3277782 0.18206632
1.320302 -1.9538429 0.2446279 -1.1724904 2.0311544 1.8102756 1.3431058 -0.156379
2.3947039 -0.44461817 2.6475844 -0.81439894 4.7563386 0.53452057 1.5176498 -2.4907496
-0.4563207 -1.304519 -0.44457203 -0.6607524 2.842083 1.7463689 2.3690577 0.899469
0.8112021 -0.21563828 4.0319047 2.8823042 -2.7224007 2.7852201 0.5276628 3.3871524
-0.41890863 -0.744609 0.89903694 -0.11878389 2.612964 -1.019934 0.2969357 -1.5236168
0.86270523 -1.6035649 -3.544129 2.3426242 4.6237483 1.8220259 1.9296885 0.14470646
-2.2447376 1.7408891 0.07267581 -0.26720497 3.5183904 1.8723079 1.0404277 3.3385894
1.2123811 0.20288135 -0.3371546 3.1185112 0.11775948 -1.6510512 0.37793788 -2.1088212
-0.63277465 -0.29098985 -1.1787307 4.9136477 1.7235733 -0.585886 -0.53279793 2.8040988
-2.4279466 3.0306878 -1.7210763 4.4226494 -1.5457246 0.032325704 -1.756466 -0.94111496
-0.17512505 -0.28302437 0.7969376 -1.1319007 -0.30329263 3.4162638 2.5691912 3.6167803
-1.672856 1.949712 0.30725023 -1.9485319 -0.22820312 0.8050486 4.071897 -0.18061456
-0.44379413 3.7170272 0.60181695 -1.036947 2.2687616 1.0098437 -0.79911524 -0.41038674
0.49948728 2.7126615 0.03920756 -3.9898105 -0.90787035 -2.236625 -1.2643911 3.2540936
0.8297701 -0.55687886 2.3879404 1.0896165 2.4819543 0.3370127 -0.81390274 -1.7947435
2.0703368 1.7107239 0.22921008 1.7052431 1.0667547 1.2888204 -0.6344447 2.6963053
2.3134494 -1.2266712 0.8380542 1.2760173 -1.160478 6.303141 2.5781827 1.7292084
2.2866504 1.2249753 0.6689243 1.1230658 0.42249972 2.8082907 4.3474565 -0.024103783
-1.7193311 -0.1473504 0.23151787 1.8735632 0.39352572 -0.5416622 -1.5226957 -2.0748367
0.6688003 -0.35834324 4.470554 0.16257568 -2.6911945 1.0620981 -1.4834572 2.052822
0.42678514 0.10469523 1.6701621 2.5185304 -0.38430375 2.732409 0.18710221 1.40112
-0.9793308 -0.78197867 1.7776791 2.876945 -0.040204465 0.8475985 -3.2333376 -0.19526273
0.37252447 -1.4119958 0.29119176 6.2840586 4.214449 3.3956044 0.02355253 2.0352645
4.085861 -0.27709454 4.1537566 0.6886996 2.8407054 1.1550872 1.7634994 1.2790407
-2.4186988 1.7107319 -0.37972414 2.3347263 -1.3321486 0.5212689 -2.0698938 -0.10820634
0.6191221 0.68845457 3.026797 0.7702142 3.42626 0.61317974 2.1580288 0.9525577
3.4669628 2.2264621 -1.4281483 1.8266228 0.6946929 1.2042161 -1.469541 2.5005732
00000000: c2d2 1f3e 6070 f53f b946 0640 9c7f dbbf
00000010: 02ed 3340 48f3 8c3f aa5b bfbf 4ca8 7cbe
00000020: 0068 16bf ed95 4240 7d53 2c40 eb9b f73f
00000030: 645e 813f 3a36 d93f 63fa 873f 9afe 9dbd
00000040: 1bb7 debd f1f8 3e40 3493 d43f 3ab6 4dc0
00000050: 9584 69c0 e496 0240 5d08 1a40 f9c0 66c0
00000060: 98f2 c8be e996 f23f 7783 4240 51aa 5a40
00000070: a15c 6f3f f86c 393f dbe5 e13f dc2d f63f
00000080: 769e c3bf 4928 703f e9ec f93f 7498 853f
00000090: 9acf 5ec0 c7d1 0540 8bd2 a7be 986f 3a3e
000000a0: a8ff a83f 8617 fabf bc7f 7a3e 2a14 96bf
000000b0: 6ffe 0140 1cb7 e73f e4ea ab3f d121 20be
000000c0: d442 1940 fea4 e3be 0672 2940 737c 50bf
000000d0: ed33 9840 57d6 083f 5942 c23f 7168 1fc0
000000e0: dea2 e9be 7bfa a6bf f29e e3be 1227 29bf
000000f0: b0e4 3540 0489 df3f a49e 1740 9a43 663f
00000100: f1aa 4f3f 48d0 5cbe 5d05 8140 ac77 3840
00000110: d03b 2ec0 0c41 3240 e914 073f 1bc7 5840
00000120: 317b d6be b29e 3ebf 4927 663f f844 f3bd
00000130: cd3a 2740 338d 82bf f507 983e e005 c3bf
00000140: 40da 5c3f 9d41 cdbf 02d3 62c0 8eed 1540
00000150: bff5 9340 2538 e93f 0800 f73f ee2d 143e
00000160: c8a9 0fc0 74d5 de3f 0ed7 943d 17cf 88be
00000170: 4f2d 6140 c9a7 ef3f bc2c 853f 73ab 5540
00000180: 4e2f 9b3f 21c0 4f3e 879f acbe b095 4740
00000190: e22b f13d a555 d3bf 1381 c13e edf6 06c0
000001a0: 85fd 21bf 9ffc 94be a6e0 96bf 9a3c 9d40
000001b0: 0d9e dc3f a0fc 15bf 7265 08bf 5b76 3340
000001c0: 7a63 1bc0 caf6 4140 3a4c dcbf 5886 8d40
000001d0: 4eda c5bf f567 043d e1d3 e0bf e9ec 70bf
000001e0: fb53 33be 92e8 90be 1a04 4c3f 1fe2 90bf
000001f0: 2c49 9bbe 11a4 5a40 a16d 2440 5479 6740
00000200: 2520 d6bf 2a90 f93f e74f 9d3e 7e69 f9bf
00000210: 14ae 69be aa17 4e3f fb4c 8240 06f3 38be
00000220: fc38 e3be c6e3 6d40 ad10 1a3f aeba 84bf
00000230: 6433 1140 8f42 813f d192 4cbf 361e d2be
00000240: ccbc ff3e 3f9c 2d40 1b98 203d 0e59 7fc0
00000250: 316a 68bf dd24 0fc0 91d7 a1bf 1243 5040
00000260: d06b 543f 9d8f 0ebf 04d4 1840 8e78 8b3f
00000270: 57d8 1e40 ee8c ac3e ee5b 50bf 28ba e5bf
00000280: 6680 0440 00f9 da3f 0cb6 6a3e 6845 da3f
00000290: 6b8b 883f 11f8 a43f f86a 22bf 4490 2c40
000002a0: 8e0f 1440 9003 9dbf b88a 563f 8954 a33f
000002b0: 8b8a 94bf 55b3 c940 f200 2540 b356 dd3f
000002c0: 7b58 1240 fecb 9c3f 9f3e 2b3f 9fc0 8f3f
000002d0: e251 d83e 09bb 3340 5d1e 8b40 4c75 c5bc
000002e0: 0b13 dcbf 06e3 16be 0513 6d3e ebd0 ef3f
000002f0: 347c c93e 60aa 0abf b1e7 c2bf 20ca 04c0
00000300: 7f36 2b3f c478 b7be c70e 8f40 3d7a 263e
00000310: 883c 2cc0 d5f2 873f ede1 bdbf 7061 0340
00000320: 9583 da3e 746a d63d dfc7 d53f 9a2f 2140
00000330: 76c3 c4be cadf 2e40 b997 3f3e e657 b33f
00000340: 6cb5 7abf c12f 48bf fd8a e33f de1f 3840
00000350: 70ad 24bd 37fc 583f 01ef 4ec0 f4f2 47be
00000360: 87bb be3e 47bc b4bf 1617 953e 0217 c940
00000370: c4dc 8640 9551 5940 3cf1 c03c c641 0240
00000380: 60bf 8240 56df 8dbe 93eb 8440 9e4e 303f
00000390: 1ece 3540 e6d9 933f 59ba e13f 9bb7 a33f
000003a0: f6cb 1ac0 43f9 da3f 346b c2be 286c 1540
000003b0: d883 aabf e171 053f 2479 04c0 499b ddbd
000003c0: c97e 1e3f 8f3e 303f 0bb7 4140 c22c 453f
000003d0: d847 5b40 59f9 1c3f 251d 0a40 d2da 733f
000003e0: b8e2 5d40 5b7e 0e40 90cd b6bf c7ce e93f
000003f0: 65d7 313f c123 9a3f eb19 bcbf 6409 2040

_layer1.1.running_var f4 [256]
1.9024063 3.4311728 2.8127937 3.4699311 4.3810444 4.533983 3.1710742 2.3861437
3.605727 3.2035372 4.1754107 2.8103282 3.447018 2.774622 3.388934 4.679016
2.9693604 3.9681787 4.309358 4.0172806 3.0597253 3.3892274 6.899503 6.249722
2.4938047 3.216968 4.8336535 2.6005404 3.0110226 3.2027273 3.6628344 2.2960649
2.8915634 4.1497364 2.8739173 2.5359204 3.1311042 3.3307354 2.4644494 3.5710673
3.2177317 2.9851673 2.8134146 4.2258296 2.7671556 4.3106327 3.949871 3.2470138
3.6103723 1.988809 3.8704426 3.5325704 4.246859 4.6661625 3.716538 3.7309577
3.2366354 2.865661 2.7860093 3.8216877 3.154211 2.8947334 5.4769983 2.4877372
2.6956725 7.2920403 3.7904701 3.2936811 2.24376 2.7756317 3.6661208 4.17379
3.2129083 2.8257449 3.7096436 3.1239417 3.9277112 2.9144976 2.9503794 2.6670935
2.6525302 2.9890678 6.0599995 2.7150445 2.8017955 3.3043144 3.377955 3.5670855
2.8342662 3.1624477 2.5877314 3.1364875 4.083512 2.567897 3.7678764 2.3288891
2.613039 2.8758337 4.283656 3.370095 2.985545 3.6600795 3.4454656 2.3695142
2.9568665 2.7383323 3.6375713 3.1790879 3.2964044 2.426841 4.3070607 3.68198
2.4565864 3.0340798 4.1680517 4.2523265 6.994661 2.6136885 3.393468 2.5647616
2.989902 3.5566928 3.8383234 3.1259997 2.4641047 4.132064 3.1065114 3.315001
3.4702344 4.925137 2.6639462 4.003308 3.4347627 4.0474586 3.744334 3.5041702
3.3314135 2.9930956 2.3831823 4.247831 3.1399124 2.5670555 3.4997613 2.3347404
2.9029171 2.847152 2.5286617 4.323492 3.5625381 3.958467 3.4014668 3.0303261
2.7606795 3.627994 2.7212696 2.6602697 3.223604 2.808172 3.1944728 2.5261598
4.0648785 4.456528 2.3922029 4.150111 2.448409 3.7833922 3.689196 2.7897773
2.3636901 2.608059 3.4509633 5.3206425 3.0204227 3.5469456 2.939085 3.232284
2.5110753 2.9769013 2.4913328 3.4761372 2.4221792 4.8006616 3.4263651 3.3461711
2.5797353 3.123576 2.3271966 3.7347078 3.978157 4.3690085 3.6714833 3.7993128
3.1290784 5.266129 2.9085236 2.8974032 3.0382464 3.8236642 3.4229703 2.360992
3.2017562 4.0200405 3.4376895 3.9918602 3.6424596 4.792049 2.8412576 2.4465213
3.6230867 2.9975183 3.0824337 2.7792783 2.8011768 3.2219355 3.0396183 3.9747026
2.6129277 3.2921748 2.0890694 2.9913173 3.9942667 3.1390667 2.9612856 2.7124403
4.0673966 2.3974512 3.8231592 3.1011899 3.6456144 2.7987518 4.0939384 2.9498777
3.6112065 2.2708137 5.4279404 5.258435 2.4438655 3.3127153 5.5579996 2.658972
2.6402946 3.4776173 3.6493137 2.9087627 3.8235693 4.002522 4.468878 2.5368943
3.9735126 4.0121355 2.0768123 4.683887 2.5902948 2.6172895 2.869472 4.274895
00000000: 0d82 f33f 5698 5b40 d004 3440 5a13 5e40
00000010: 8431 8c40 6416 9140 e1f2 4a40 94b6 1840
00000020: 3bc4 6640 c106 4d40 f79c 8540 6bdc 3340
00000030: f19b 5c40 6893 3140 4be4 5840 80ba 9540
00000040: 000a 3e40 a4f6 7d40 43e6 8940 908d 8040
00000050: 8ad2 4340 1ae9 5840 bbc8 dc40 b9fd c740
00000060: 7f9a 1f40 cee2 4d40 4aad 9a40 416f 2640
00000070: 98b4 4040 7cf9 4c40 e16b 6a40 baf2 1240
00000080: 600f 3940 a4ca 8440 43ee 3740 854c 2240
00000090: 0364 4840 c52a 5540 8ab9 1d40 5e8c 6440
000000a0: 51ef 4d40 fb0c 3f40 fc0e 3440 ff39 8740
000000b0: 1419 3140 b4f0 8940 b0ca 7c40 13cf 4f40
000000c0: 5710 6740 4b91 fe3f 55b5 7740 a215 6240
000000d0: 45e6 8740 3451 9540 c2db 6d40 03c8 6e40
000000e0: 0925 4f40 fd66 3740 fa4d 3240 8896 7440
000000f0: 98de 4940 5043 3940 9243 af40 1637 1f40
00000100: e685 2c40 6558 e940 1097 7240 accb 5240
00000110: c499 0f40 f3a3 3140 b9a1 6a40 b08f 8540
00000120: 4aa0 4d40 01d9 3440 cd6a 6d40 a9ee 4740
00000130: 9f5f 7b40 2187 3a40 04d3 3c40 a9b1 2a40
00000140: 0ec3 2940 e34c 3f40 84eb c140 4ac3 2d40
00000150: 9e50 3340 e379 5340 6a30 5840 214b 6440
00000160: 9e64 3540 8b65 4a40 649d 2540 36bc 4840
00000170: 21ac 8240 6d58 2440 e324 7140 850c 1540
00000180: 083c 2740 a90d 3840 b613 8940 a3af 5740
00000190: 2b13 3f40 be3e 6a40 8282 5c40 1fa6 1740
000001a0: 4d3d 3d40 d640 2f40 f8cd 6840 2d76 4b40
000001b0: 4af8 5240 5d51 1b40 71d3 8940 8fa5 6b40
000001c0: b638 1d40 5d2e 4240 ae60 8540 0f13 8840
000001d0: 43d4 df40 ac46 2740 942e 5940 0e25 2440
000001e0: 8e5a 3f40 dba0 6340 17a7 7540 6110 4840
000001f0: e4b3 1d40 de39 8440 15d1 4640 fa28 5440
00000200: 5218 5e40 b99a 9d40 187e 2a40 191b 8040
00000210: 27d3 5b40 c884 8140 2ba3 6f40 5344 6040
00000220: e135 5540 e18e 3f40 0f86 1840 3bee 8740
00000230: 53f4 4840 a34a 2440 17fc 5f40 636c 1540
00000240: 65c9 3940 bd37 3640 98d5 2140 0c5a 8a40
00000250: a000 6440 8657 7d40 a2b1 5940 ddf0 4140
00000260: f9ae 3040 0e31 6840 4829 2e40 dc41 2a40
00000270: 874f 4e40 17b9 3340 3e72 4c40 9aac 2140
00000280: 7c13 8240 e19b 8e40 da19 1940 b6cd 8440
00000290: bcb2 1c40 1923 7240 ca1b 6c40 b68b 3240
000002a0: b346 1740 70ea 2640 95dc 5c40 b442 aa40
000002b0: 9b4e 4140 2801 6340 f819 3c40 bedd 4e40
000002c0: 75b5 2040 8d85 3e40 ff71 1f40 0879 5e40
000002d0: fc04 1b40 059f 9940 9149 5b40 ab27 5640
000002e0: 621a 2540 abe8 4740 caf0 1440 7405 6f40
000002f0: 209a 7e40 ebce 8b40 95f9 6a40 f127 7340
00000300: d242 4840 2184 a840 4025 3a40 0e6f 3940
00000310: a172 4240 eab6 7440 f211 5b40 7e1a 1740
00000320: 93e9 4c40 2ca4 8040 1b03 5c40 a37a 7f40
00000330: 0f1e 6940 7758 9940 2ad7 3540 ce93 1c40
00000340: a7e0 6740 57d7 3f40 9846 4540 b2df 3140
00000350: 7b46 3340 3134 4e40 1b89 4240 8761 7e40
00000360: 353a 2740 feb2 5240 50b3 0540 be71 3f40
00000370: 11a2 7f40 78e6 4840 b485 3d40 9f98 2d40
00000380: 1d28 8240 d76f 1940 a4ae 7440 e579 4640
00000390: bf51 6940 c01e 3340 8b01 8340 ccca 3c40
000003a0: 021e 6740 0355 1140 b0b1 ad40 1945 a840
000003b0: 4b68 1c40 8703 5440 22db b140 992c 2a40
000003c0: 96fa 2840 4891 5e40 5b8e 6940 2b29 3a40
000003d0: 5cb5 7440 a914 8040 0c01 8f40 7a5c 2240
000003e0: 084e 7e40 6a63 8040 7eea 0440 67e2 9540
000003f0: 64c7 2540 ac81 2740 6ea5 3740 f1cb 8840

_layer2.0.weight f4 [128, 256]
-0.034040745 0.052945137 0.0375956 -0.17946559 0.107748136 -0.12604247 0.1772479 -0.29039153
-0.020909298 -0.06864887 -0.13583349 -0.1717175 0.4027229 0.05213042 -0.34159088 -0.2639875
-0.23307864 0.24372353 0.050017387 0.17793041 -0.3437017 0.057945814 -0.034438778 0.07069818
-0.06613392 -0.028590133 0.08975474 -0.19132689 -0.104207285 0.3346188 -0.09814168 -0.06948903
-0.28671238 -0.17374182 -0.02746238 0.1524413 -0.3616339 0.16930473 0.21025941 -0.03539358
0.09064355 0.40932474 -0.053922586 -0.041581333 -0.14405073 0.13724405 -0.13044563 -0.24404198
-0.03276136 -0.066034846 -0.2841794 -0.1041838 0.09819554 -0.107153326 -0.21693261 0.0505979
-0.16473314 0.0012406755 -0.007013201 -0.06596955 0.025000818 -0.103810064 -0.018523157 -0.13260312
0.19579387 0.06602871 0.08989983 -0.15957566 0.1488756 -0.34573966 0.08872667 -0.10425849
0.031686105 -0.43275076 -0.13517402 -0.037624616 0.16977653 -0.095580295 -0.012678999 -0.07952647
-0.12578785 -0.043306746 -0.2644463 0.044403173 0.032700304 0.14652656 -0.15562657 0.17811882
-0.15070115 -0.15691364 -0.21107419 -0.28892988 -0.118764915 0.113001466 -0.4712993 0.07031638
0.31534025 -0.015859151 0.090280384 -0.24238186 0.041440014 0.12990113 0.19439761 0.26685134
-0.05426992 -0.015895681 -0.34833753 -0.13893192 -0.11838787 0.06145099 -0.007538726 -0.019696983
-0.25141037 0.02989694 -0.026842566 -0.050335273 0.024492605 -0.09090271 -0.05791015 -0.14132941
0.16853186 -0.15110217 0.015116873 -0.025905928 0.14191173 -0.19825219 -0.06340035 -0.18258776
0.07283048 -0.25341576 -0.00067289406 -0.032275632 -0.10537132 -0.06563917 0.032016974 -0.0061060213
-0.3300176 0.1289006 -0.06354766 -0.038430236 0.050929245 0.11681874 0.14557661 0.014399018
0.018228158 0.009287632 -0.038772438 -0.28093663 -0.035434406 0.13364317 0.13789776 -0.16281314
0.13421333 0.01003709 -0.088783406 0.023105564 -0.09237517 -0.05244716 -0.037425455 -0.3687336
-0.014811227 -0.10702754 -0.35071063 0.058964245 -0.06577819 0.110956 0.058919247 -0.28104043
0.29735297 -0.22779313 0.19204909 0.28718027 -0.23394603 -0.034509294 -0.009870895 -0.24126922
-0.33423972 -0.030134799 -0.29919803 0.17015363 -0.13512889 0.09315151 -0.081359625 -0.041608192
-0.16392048 -0.035222482 -0.30483443 -0.02594148 0.17428535 0.14311723 -0.08268269 -0.3074286
0.13295534 0.013155073 0.116769135 0.061902124 -0.0024117471 0.13535511 -0.28059196 -0.14255054
-0.16519524 -0.0015258931 -0.12813708 -0.14866829 -0.10157546 0.016066408 0.0018012556 -0.020935953
-0.09064079 -0.2018148 -0.090781376 0.105929606 -0.29805523 0.1069661 -0.15314275 0.0150676295
-0.25613523 -0.055527035 -0.0666892 -0.26187304 0.051341794 0.1797435 -0.0800722 -0.3431485
0.1633855 0.053001177 0.057620093 0.019360743 -0.05645824 0.052052975 0.050385773 0.11823235
-0.0024922444 0.24725348 -0.043681357 0.42419273 0.13366361 -0.36910263 0.1103851 -0.16574661
-0.07083134 -0.13326347 -0.074828625 0.11654708 0.21656233 -0.06370982 -0.09416842 -0.041698053
0.055939533 -0.03699919 0.03350261 0.025803063 0.15644528 0.1535488 -0.15398006 0.09701609
00000000: 4f6e 0bbd 00dd 583d d8fd 193d d4c5 37be
00000010: 0eab dc3d 4711 01be 7980 353e 33ae 94be
00000020: fa49 abbc c797 8cbd ef17 0bbe b6d6 2fbe
00000030: b231 ce3e b586 553d 00e5 aebe 5f29 87be
00000040: 2bac 6ebe a992 793e 08df 4c3d 6433 363e
00000050: abf9 afbe 9758 6d3d ad0f 0dbd 35ca 903d
00000060: 3871 87bd db35 eabc 55d1 b73d 32eb 43be
00000070: a16a d5bd 2853 ab3e 81fe c8bd 4450 8ebd
00000080: f7cb 92be 60e9 31be c9f8 e0bc 9219 1c3e
00000090: 1428 b9be 385e 2d3e 3e4e 573e dcf8 10bd
000000a0: 53a3 b93d 0393 d13e eedd 5cbd 3051 2abd
000000b0: 0982 13be b489 0c3e 8a93 05be 24e6 79be
000000c0: c730 06bd 473d 87bd f67f 91be 515e d5bd
000000d0: be1a c93d 3473 dbbd 9523 5ebe be3f 4f3d
000000e0: ceaf 28be 299e a23a fece e5bb 0b1b 87bd
000000f0: 84ce cc3c 5f9a d4bd e0bd 97bc 1dc9 07be
00000100: 307e 483e 0f3a 873d 671d b83d cd67 23be
00000110: d872 183e ca04 b1be 54b6 b53d 7a85 d5bd
00000120: 4ac9 013d 8291 ddbe 0f6b 0abe 451c 1abd
00000130: e6d9 2d3e 9abf c3bd 94bb 4fbc c6de a2bd
00000140: 88ce 00be 6a62 31bd 8165 87be 1ae0 353d
00000150: c1f0 053d 0f0b 163e 925c 1fbe c864 363e
00000160: 6751 1abe f8ad 20be d523 58be 9eee 93be
00000170: 053b f3bd 506d e73d 244e f1be 0902 903d
00000180: 4774 a13e 0deb 81bc ece4 b83d f332 78be
00000190: 01bd 293d cd04 053e 2b10 473e bda0 883e
000001a0: 234a 5ebd a937 82bc 4c59 b2be 2b44 0ebe
000001b0: 5775 f2bd 09b4 7b3d 6b07 f7bb 915b a1bc
000001c0: dcb8 80be 6dea f43c f1e4 dbbc 5c2c 4ebd
000001d0: b7a4 c83c 332b babd 3233 6dbd a8b8 10be
000001e0: 9e93 2c3e 87ba 1abe c3ac 773c ab38 d4bc
000001f0: 4f51 113e 9f02 4bbe 0bd8 81bd 49f8 3abe
00000200: 2628 953d b6bf 81be 2865 30ba 7433 04bd
00000210: ebcc d7bd d46d 86bd 3b24 033d 0515 c8bb
00000220: 11f8 a8be 85fe 033e 4725 82bd 0669 1dbd
00000230: 2f9b 503d aa3e ef3d 0912 153e dce9 6b3c
00000240: 3853 953c 272b 183c d9cf 1ebd edd6 8fbe
00000250: ab23 11bd c1d9 083e 1235 0d3e 7db8 26be
00000260: 386f 093e 9b72 243c 13d4 b5bd e147 bd3c
00000270: 312f bdbd d5d2 56bd 6f4b 19bd a7ca bcbe
00000280: caaa 72bc 4131 dbbd 5890 b3be 7e84 713d
00000290: b7b6 86bd e63c e33d 4f55 713d 88e4 8fbe
000002a0: a63e 983e 9a42 69be 84a8 443e 4b09 933e
000002b0: 8c8f 6fbe 9e59 0dbd 89b9 21bc 470f 77be
000002c0: 7821 abbe 41dd f6bc 7c30 99be c13c 2e3e
000002d0: 3a5f 0abe 38c6 be3d e09f a6bd 5a6d 2abd
000002e0: c5da 27be 7345 10bd 4213 9cbe 3a83 d4bc
000002f0: dc77 323e 538d 123e 8b55 a9bd 4867 9dbe
00000300: 7225 083e 6088 573c a824 ef3d 158d 7d3d
00000310: 670e 1ebb 889a 0a3e c0a9 8fbe c5f8 11be
00000320: f128 29be 7a00 c8ba 5e36 03be 803c 18be
00000330: cb06 d0bd b39d 833c 1c18 ec3a e081 abbc
00000340: e1a1 b9bd 8aa8 4ebe 96eb b9bd 9ff1 d83d
00000350: b29a 98be 0b11 db3d 74d1 1cbe 38de 763c
00000360: 2824 83be 5170 63bd 5994 88bd 3914 86be
00000370: c64b 523d ae0e 383e e5fc a3bd 29b1 afbe
00000380: 874e 273e c317 593d 0c03 6c3d 6c9a 9e3c
00000390: c140 67bd 8035 553d 5061 4e3d cd23 f23d
000003a0: ec54 23bb 0430 7d3e 39eb 32bd ca2f d93e
000003b0: 1ddf 083e 05fb bcbe 9511 e23d 7bb9 29be
000003c0: 0610 91bd 3876 08be c03f 99bd 3cb0 ee3d
000003d0: 84c2 5d3e 4b7a 82bd 5fdb c0bd 94cb 2abd
000003e0: da20 653d 768c 17bd 083a 093d f260 d33c
000003f0: 3133 203e e63b 1d3e f3ac 1dbe 5fb0 c63d

_layer2.0.bias f4 [128]
-0.00020067957 -0.00019914184 -0.00022002493 0.00018816757 0.00011856573 -9.301925e-05 -0.0001897123 0.00021363833
8.716009e-05 8.9283974e-05 -8.752478e-05 5.150354e-05 0.00023598612 -6.920338e-05 -6.8015805e-05 4.7469886e-05
-0.000110150875 -0.00012278065 4.1661635e-05 5.9747515e-05 -5.309803e-05 -1.065221e-05 5.6740428e-05 0.00014220175
6.219482e-05 -0.00012160117 5.0722607e-05 6.443603e-05 -7.742745e-05 9.5291754e-05 0.00016094321 -5.4702752e-05
-8.689898e-05 8.258426e-05 -0.00019953548 0.00011434881 -7.203388e-05 1.6241005e-05 3.323722e-05 -6.5034306e-05
-0.00010478159 0.00018808607 -0.00018338926 -8.3902e-05 0.0003306315 5.2239335e-05 6.460628e-05 -0.00022130237
0.00012685565 -6.4418695e-05 0.00013844392 -0.00019206907 -1.1342203e-05 -7.289268e-05 0.00014959223 -3.0722826e-05
0.00021200073 -0.00019792707 0.0001887653 2.0505882e-05 0.00020437106 -8.930073e-05 0.00022864454 9.923785e-05
5.4412878e-05 5.627344e-05 -6.498177e-05 0.00022799868 0.0003293816 -4.0532665e-05 -7.159987e-05 -0.00014416526
-0.00016090831 9.115646e-06 0.00021631637 -0.0001162632 -0.00011381041 0.00012429217 -5.7304645e-05 -8.3352024e-05
-0.00013265811 -5.839727e-05 -7.944484e-05 0.00015325562 -0.00013962825 9.849616e-05 6.7464294e-05 -0.0019387795
-9.244961e-05 0.00012142105 2.822457e-05 9.3416544e-05 0.00021618446 6.77908e-05 -7.3023526e-05 -0.00012145974
0.00019130335 -1.672785e-05 3.1299336e-05 9.108499e-05 0.0001367321 0.00012996969 0.00019645687 5.0506835e-05
-0.00012729982 -0.000109012275 -6.596012e-05 1.2459949e-05 8.025168e-05 0.00025588254 8.557412e-05 -0.0002495291
0.000113076574 -0.00011203847 0.00012782004 0.00010838596 -3.340646e-05 -9.245697e-05 -0.0002123349 7.8984354e-05
0.00022104336 -0.00018598752 7.931506e-05 -0.00013263788 -0.00011948087 -4.75803e-05 -4.9349772e-05 5.9346443e-05
00000000: 836d 52b9 bbd0 50b9 7eb6 66b9 d94e 4539
00000010: 7ea6 f838 5413 c3b8 82ed 46b9 1a04 6039
00000020: b8c9 b638 f83d bb38 828d b7b8 8105 5838
00000030: 0b73 7739 4821 91b8 b5a3 8eb8 671a 4738
00000040: cd00 e7b8 aebe 00b9 d7bd 2e38 6899 7a38
00000050: 93b5 5eb8 e5b6 32b7 92fc 6d38 fe1b 1539
00000060: 976e 8238 2204 ffb8 fcbe 5438 d521 8738
00000070: 8c60 a2b8 5fd7 c738 ddc2 2839 a270 65b8
00000080: 893d b6b8 1631 ad38 663a 51b9 8dce ef38
00000090: e510 97b8 4b3d 8837 3168 0b38 0763 88b8
000000a0: 30be dbb8 f838 4539 2e4c 40b9 8bf4 afb8
000000b0: 9c58 ad39 8f1b 5b38 3c7d 8738 670d 68b9
000000c0: 8e04 0539 8618 87b8 422b 1139 2666 49b9
000000d0: 644a 3eb7 f6dd 98b8 dcdb 1c39 62dc 00b8
000000e0: 834c 5e39 a58a 4fb9 4def 4539 0c04 ac37
000000f0: 704c 5639 f746 bbb8 4dc0 6f39 ea1d d038
00000100: 6239 6438 2507 6c38 d246 88b8 ee12 6f39
00000110: dab0 ac39 9e01 2ab8 e327 96b8 112b 17b9
00000120: 7fb9 28b9 67ef 1837 fcd2 6239 55d2 f3b8
00000130: 80ad eeb8 6d54 0239 655a 70b8 47cd aeb8
00000140: 241a 0bb9 97ef 74b8 a09b a6b8 3eb3 2039
00000150: 2c69 12b9 b98f ce38 9e7b 8d38 a51e feba
00000160: 82e1 c1b8 6ea3 fe38 cdc3 ec37 a0e8 c338
00000170: 93af 6239 e92a 8e38 3524 99b8 34b8 feb8
00000180: 9a98 4839 c952 8cb7 6847 0338 e204 bf38
00000190: be5f 0f39 7948 0839 fdff 4d39 4dd7 5338
000001a0: c97b 05b9 859d e4b8 1254 8ab8 130b 5137
000001b0: cb4c a838 f927 8639 4176 b338 3bd3 82b9
000001c0: 8623 ed38 32f6 eab8 6e07 0639 454d e338
000001d0: ea1d 0cb8 75e5 c1b8 37a6 5eb9 67a4 a538
000001e0: e0c7 6739 a505 43b9 f355 a638 b614 0bb9
000001f0: ce91 fab8 f590 47b8 eafc 4eb8 c2ea 7838

_layer2.1.weight f4 [128]
0.8214993 0.7324112 0.6173418 0.62396353 0.8035733 0.5783222 0.6658774 0.79055184
0.6934976 0.7398985 0.8825327 0.7266232 0.8349753 0.73248565 0.6572248 0.59875333
0.8105453 0.7761003 0.7653396 0.82719046 0.8325741 0.83276266 0.793112 0.8657188
0.7928252 0.87437475 0.84162277 0.80750877 0.523095 0.72722906 0.7644872 0.75748146
0.6322185 0.5525006 0.7838337 0.7110919 0.7453565 0.71121657 0.80876464 0.82838225
0.73433346 0.7078199 0.6629376 0.79843503 0.7535793 0.6914365 0.8895059 0.6445288
0.80907184 0.7842819 0.808471 0.6455068 0.65296394 0.798867 0.7994071 0.81150585
0.8214191 0.82012784 0.71754426 0.89351684 0.754943 0.82690066 0.6767598 0.6943544
0.81101173 0.864806 0.76765597 0.89815706 0.8657782 0.9042235 0.8986695 0.7929564
0.84003067 0.8381937 0.798755 0.90466213 0.7647675 0.78900236 0.7309426 0.9017232
0.8685849 0.7864329 0.88868564 0.78398895 0.82394576 0.83816564 0.79216444 0.8133898
0.8410516 0.68064076 0.79487836 0.78558487 0.62787074 0.69941044 0.7045092 0.7816389
0.7861143 0.7859633 0.83825624 0.8436572 0.7812248 0.81060123 0.8527961 0.7461077
0.7963403 0.7807966 0.7643649 0.87915653 0.89729273 0.732173 0.8340746 0.5386177
0.65754026 0.8929767 0.822113 0.7384759 0.788675 0.6383769 0.7000959 0.7246634
0.7978474 0.9090572 0.73991656 0.8565562 0.8206622 0.7961536 0.9220471 0.8522066
00000000: c74d 523f 4d7f 3b3f 1d0a 1e3f 13bc 1f3f
00000010: fbb6 4d3f ec0c 143f f176 2a3f 9b61 4a3f
00000020: 0f89 313f fd69 3d3f aaed 613f fa03 3a3f
00000030: f1c0 553f 2e84 3b3f e23f 283f e647 193f
00000040: e67f 4f3f 82ae 463f 4ced 433f c1c2 533f
00000050: 9423 553f ef2f 553f 6309 4b3f bf9f 5d3f
00000060: 98f6 4a3f 06d7 5f3f 9774 573f e5b8 4e3f
00000070: 8ee9 053f af2b 3a3f 6fb5 433f 4eea 413f
00000080: 12d9 213f ae70 0d3f 53a9 483f 1e0a 363f
00000090: afcf 3e3f 4a12 363f 330b 4f3f dc10 543f
000000a0: 47fd 3b3f af33 353f 47b6 293f 3d66 4c3f
000000b0: 93ea 403f fc01 313f a9b6 633f d7ff 243f
000000c0: 551f 4f3f b3c6 483f f5f7 4e3f ef3f 253f
000000d0: a528 273f 8c82 4c3f f2a5 4c3f d9be 4f3f
000000e0: 8648 523f e6f3 513f fbb0 373f 85bd 643f
000000f0: f243 413f c3af 533f 2140 2d3f 36c1 313f
00000100: 779e 4f3f ed63 5d3f 1a85 443f 9fed 653f
00000110: a4a3 5d3f 317b 673f 340f 663f 31ff 4a3f
00000120: 400c 573f dd93 563f 357b 4c3f f097 673f
00000130: cec7 433f 0ffc 493f 0e1f 3b3f 55d7 663f
00000140: 945b 5e3f ab53 493f e780 633f 80b3 483f
00000150: 1cee 523f 0692 563f 4acb 4a3f 503a 503f
00000160: 284f 573f 793e 2e3f 267d 4b3f 171c 493f
00000170: 23bc 203f 900c 333f b75a 343f 7d19 483f
00000180: c93e 493f e434 493f f697 563f ebf9 573f
00000190: 59fe 473f 9083 4f3f d850 5a3f ea00 3f3f
000001a0: f5dc 4b3f 49e2 473f 6bad 433f 6710 613f
000001b0: fab4 653f b16f 3b3f ea85 553f d9e2 093f
000001c0: 8f54 283f 1f9a 643f ff75 523f c20c 3d3f
000001d0: 9be6 493f ab6c 233f 7c39 333f 8a83 393f
000001e0: ba3f 4c3f f9b7 683f 2c6b 3d3f 4447 5b3f
000001f0: eb16 523f b9d0 4b3f 470b 6c3f 362a 5a3f
